model weight/cnn1d_model_weights.pth (torch, 1639 bytes, 2 tensors)

conv1.weight f8 [1, 1, 60]
0	0xbfc2c0740c7c9753	-0.14649820909215325
1	0x3fa0b25ff2e6e030	0.03261089172468734
2	0x3fd19c331175fb19	0.2751586599842298
3	0xbfc130d76aef03ac	-0.13430302354211443
4	0x3fad040939c291e6	0.05667141752317999
5	0xbfb152e274697253	-0.06767096845710201
6	0xbfb047bdea6fbbda	-0.06359469388529196
7	0x3fa8d890765a3b8b	0.048527254531214835
8	0xbfa285ffd120cb2f	-0.036178583410580216
9	0xbfa5ce1dc467e192	-0.04258816740542949
10	0x3fb705e12602e410	0.08993346384058065
11	0x3fbe39b4370837ec	0.1180679926257821
12	0x3fbb0577043fc9d2	0.10555213788737852
13	0xbfc1f0b610cfc945	-0.14015842266923975
14	0xbfab377a66fd857f	-0.05315763957220109
15	0xbf77f427c4128a20	-0.005848079047754001
16	0x3fd1298e66d9e33e	0.26816139263205574
17	0xbfc343c5d00a1254	-0.1505057588402844
18	0xbfa705ee236b0a41	-0.04496711904859697
19	0xbfc17d3ef4480c4e	-0.13663470199398592
20	0x3fc600e5234fb77b	0.17190231537045605
21	0x3faa4f7e51b853e9	0.051387736774053235
22	0x3fcd41f46cda1712	0.22857528033289803
23	0xbfb71b5dbffe3d0b	-0.09026132523853307
24	0x3fd624dc48e17621	0.34599978558785166
25	0xbfba0b2cb04cd94f	-0.10173301033214453
26	0xbf741eaf92148908	-0.004912076781041337
27	0xbfe3f0b9a982d510	-0.6231354056132279
28	0x3fc52b5a6b76799a	0.1653855347366971
29	0x3fe23942b3cd8c01	0.5694898139739736
30	0x3fc50868efd02386	0.16431915006276315
31	0xbfd327985caf7fe3	-0.299291697037914
32	0xbfbb7e52b61e89e5	-0.10739628740569847
33	0x3faeb9cdf5c6b20f	0.060011326076480846
34	0x3fc367bddcd9d648	0.15160344394432657
35	0x3fc00814cc6b8098	0.1252466200012392
36	0x3fc2b42809c70ccb	0.1461229369871034
37	0x3fa2ce9f85a85cfe	0.03673265940249769
38	0x3fb4f7f2f2715156	0.08190840167055077
39	0xbfae22ea38a3705d	-0.05886012975108266
40	0xbfb78bb0d0914cdb	-0.09197526065809163
41	0xbfb4b660b46ce03b	-0.08090786366381135
42	0x3f952a3289264fb2	0.02066878282637647
43	0x3fb67a2594f570fe	0.08780131231964458
44	0x3fb6a89acdacf05d	0.08851020356536439
45	0x3f55462408f77752	0.0012984611420203307
46	0xbf93c4df96649d2c	-0.01930569987703483
47	0x3f87bd94fa08d96a	0.011592067604493567
48	0x3fb32caa7f0be883	0.07490029908868405
49	0xbf76d7880d763f2a	-0.005576640563404381
50	0xbf7a4dc63f0e6ddc	-0.006421827697433238
51	0xbf8937a082d03321	-0.012313131324867723
52	0xbf87c892e53e0ff1	-0.011613032933162489
53	0xbfb29dbf344e2af6	-0.07271952654825128
54	0x3fa64e127b5dadb8	0.04356439357692515
55	0xbf85c4b778ad4136	-0.010629113550436924
56	0x3fbb48439d7c7c6e	0.10657141299133041
57	0x3f83365763a64627	0.009380991676866192
58	0xbf73dfc51fc491a3	-0.004852075592030411
59	0xbfb232602bd49f0b	-0.07108117170411903

conv2.weight f8 [1, 1, 10]
0	0x3fa756d722a805e2	0.0455844144635298
1	0x3fb6e462f42b113d	0.08942240201128455
2	0x3fc063e28225100f	0.12804824213719754
3	0x3fc5242d426c526a	0.1651665281612112
4	0x3fc833cfdba99274	0.18908117509558375
5	0x3fc7d72fdcd83876	0.18625448497226998
6	0x3fc49c2aa8964226	0.16101582748207582
7	0x3fbfec065ce311a6	0.12469520347355587
8	0x3fb59747e3e08d3b	0.08433961213500123
9	0x3fa499c52efb0fd1	0.04023567389006611
